…
Type of transformation of target values: none

----------------------------------------------------------------------------------------------------


Training and testing in a CV fold of 10...	3s passed...	2025-03-25 00:36:01.611796

Training with CV group 1 out of 10, replicate 1 out of 5	3s passed...	2025-03-25 00:36:01.722840
Model: "functional"
┏━━━━━━━━━━━━━━━━━━━━━━━━━━━━━━━━━┳━━━━━━━━━━━━━━━━━━━━━━━━┳━━━━━━━━━━━━━━━┓
┃ Layer (type)                    ┃ Output Shape           ┃       Param # ┃
┡━━━━━━━━━━━━━━━━━━━━━━━━━━━━━━━━━╇━━━━━━━━━━━━━━━━━━━━━━━━╇━━━━━━━━━━━━━━━┩
│ input_layer (InputLayer)        │ (None, 84, 4)          │             0 │
├─────────────────────────────────┼────────────────────────┼───────────────┤
│ conv1d (Conv1D)                 │ (None, 81, 96)         │         1,632 │
├─────────────────────────────────┼────────────────────────┼───────────────┤
│ layer_normalization             │ (None, 81, 96)         │           192 │
│ (LayerNormalization)            │                        │               │
├─────────────────────────────────┼────────────────────────┼───────────────┤
│ activation (Activation)         │ (None, 81, 96)         │             0 │
├─────────────────────────────────┼────────────────────────┼───────────────┤
│ conv1d_1 (Conv1D)               │ (None, 78, 96)         │        36,960 │
├─────────────────────────────────┼────────────────────────┼───────────────┤
│ layer_normalization_1           │ (None, 78, 96)         │           192 │
│ (LayerNormalization)            │                        │               │
├─────────────────────────────────┼────────────────────────┼───────────────┤
│ activation_1 (Activation)       │ (None, 78, 96)         │             0 │
├─────────────────────────────────┼────────────────────────┼───────────────┤
│ max_pooling1d (MaxPooling1D)    │ (None, 39, 96)         │             0 │
├─────────────────────────────────┼────────────────────────┼───────────────┤
│ dropout (Dropout)               │ (None, 39, 96)         │             0 │
├─────────────────────────────────┼────────────────────────┼───────────────┤
│ GRU_activate (GRU)              │ (None, 128)            │        86,784 │
├─────────────────────────────────┼────────────────────────┼───────────────┤
│ layer_normalization_2           │ (None, 128)            │           256 │
│ (LayerNormalization)            │                        │               │
├─────────────────────────────────┼────────────────────────┼───────────────┤
│ activation_2 (Activation)       │ (None, 128)            │             0 │
├─────────────────────────────────┼────────────────────────┼───────────────┤
│ dense (Dense)                   │ (None, 96)             │        12,384 │
├─────────────────────────────────┼────────────────────────┼───────────────┤
│ dropout_dense (Dropout)         │ (None, 96)             │             0 │
├─────────────────────────────────┼────────────────────────┼───────────────┤
│ batch_nor_dense                 │ (None, 96)             │           384 │
│ (BatchNormalization)            │                        │               │
├─────────────────────────────────┼────────────────────────┼───────────────┤
│ activate_dense (Activation)     │ (None, 96)             │             0 │
├─────────────────────────────────┼────────────────────────┼───────────────┤
│ final_dense (Dense)             │ (None, 1)              │            97 │
└─────────────────────────────────┴────────────────────────┴───────────────┘
 Total params: 138,881 (542.50 KB)
 Trainable params: 138,689 (541.75 KB)
 Non-trainable params: 192 (768.00 B)

Return the best model...

R squared:  0.80 (Rp =  0.895, Rs =  0.847)


Training with CV group 1 out of 10, replicate 2 out of 5	637s passed...	2025-03-25 00:46:35.503057
Return the best model...

R squared:  0.80 (Rp =  0.894, Rs =  0.844)
…
