…
----------------------------------------------------------------------------------------------------

All groups will be used for validation monitoring after each epoch.

Training and testing in a CV fold of 10...	39s passed...	2025-03-24 12:35:39.195332

Training with CV group 1 out of 10, replicate 1 out of 5	40s passed...	2025-03-24 12:35:40.038776
Model: "functional"
┏━━━━━━━━━━━━━━━━━━━━━┳━━━━━━━━━━━━━━━━━━━┳━━━━━━━━━━━━┳━━━━━━━━━━━━━━━━━━━┓
┃ Layer (type)        ┃ Output Shape      ┃    Param # ┃ Connected to      ┃
┡━━━━━━━━━━━━━━━━━━━━━╇━━━━━━━━━━━━━━━━━━━╇━━━━━━━━━━━━╇━━━━━━━━━━━━━━━━━━━┩
│ data_input          │ (None, 2000, 5)   │          0 │ -                 │
│ (InputLayer)        │                   │            │                   │
├─────────────────────┼───────────────────┼────────────┼───────────────────┤
│ conv1d (Conv1D)     │ (None, 1997, 64)  │      1,344 │ data_input[0][0]  │
├─────────────────────┼───────────────────┼────────────┼───────────────────┤
│ layer_normalization │ (None, 1997, 64)  │        128 │ conv1d[0][0]      │
│ (LayerNormalizatio… │                   │            │                   │
├─────────────────────┼───────────────────┼────────────┼───────────────────┤
│ activation          │ (None, 1997, 64)  │          0 │ layer_normalizat… │
│ (Activation)        │                   │            │                   │
├─────────────────────┼───────────────────┼────────────┼───────────────────┤
│ conv1d_1 (Conv1D)   │ (None, 1994, 64)  │     16,448 │ activation[0][0]  │
├─────────────────────┼───────────────────┼────────────┼───────────────────┤
│ layer_normalizatio… │ (None, 1994, 64)  │        128 │ conv1d_1[0][0]    │
│ (LayerNormalizatio… │                   │            │                   │
├─────────────────────┼───────────────────┼────────────┼───────────────────┤
│ activation_1        │ (None, 1994, 64)  │          0 │ layer_normalizat… │
│ (Activation)        │                   │            │                   │
├─────────────────────┼───────────────────┼────────────┼───────────────────┤
│ max_pooling1d       │ (None, 997, 64)   │          0 │ activation_1[0][… │
│ (MaxPooling1D)      │                   │            │                   │
├─────────────────────┼───────────────────┼────────────┼───────────────────┤
│ dropout (Dropout)   │ (None, 997, 64)   │          0 │ max_pooling1d[0]… │
├─────────────────────┼───────────────────┼────────────┼───────────────────┤
│ GRU_activate (GRU)  │ (None, 128)       │     74,496 │ dropout[0][0]     │
├─────────────────────┼───────────────────┼────────────┼───────────────────┤
│ layer_normalizatio… │ (None, 128)       │        256 │ GRU_activate[0][… │
│ (LayerNormalizatio… │                   │            │                   │
├─────────────────────┼───────────────────┼────────────┼───────────────────┤
│ activation_2        │ (None, 128)       │          0 │ layer_normalizat… │
│ (Activation)        │                   │            │                   │
├─────────────────────┼───────────────────┼────────────┼───────────────────┤
│ dense (Dense)       │ (None, 128)       │     16,512 │ activation_2[0][… │
├─────────────────────┼───────────────────┼────────────┼───────────────────┤
│ dropout_dense       │ (None, 128)       │          0 │ dense[0][0]       │
│ (Dropout)           │                   │            │                   │
├─────────────────────┼───────────────────┼────────────┼───────────────────┤
│ batch_nor_dense     │ (None, 128)       │        512 │ dropout_dense[0]… │
│ (BatchNormalizatio… │                   │            │                   │
├─────────────────────┼───────────────────┼────────────┼───────────────────┤
│ activate_dense      │ (None, 128)       │          0 │ batch_nor_dense[… │
│ (Activation)        │                   │            │                   │
├─────────────────────┼───────────────────┼────────────┼───────────────────┤
│ output_list_0       │ (None, 1)         │        129 │ activate_dense[0… │
│ (Dense)             │                   │            │                   │
├─────────────────────┼───────────────────┼────────────┼───────────────────┤
│ output_list_1       │ (None, 1)         │        129 │ activate_dense[0… │
│ (Dense)             │                   │            │                   │
├─────────────────────┼───────────────────┼────────────┼───────────────────┤
│ group_input         │ (None, 1)         │          0 │ -                 │
│ (InputLayer)        │                   │            │                   │
├─────────────────────┼───────────────────┼────────────┼───────────────────┤
│ final_output        │ (None, 1)         │          0 │ output_list_0[0]… │
│ (CustomGatherLayer) │                   │            │ output_list_1[0]… │
│                     │                   │            │ group_input[0][0] │
└─────────────────────┴───────────────────┴────────────┴───────────────────┘
 Total params: 110,082 (430.01 KB)
 Trainable params: 109,826 (429.01 KB)
 Non-trainable params: 256 (1.00 KB)

Return the best model...

R squared for data group 1:  0.55 (Rp =  0.744, Rs =  0.785)
…
