…
none: 1.425
log: 0.111
sqrt: 0.864
box-cox: 0.000
yeo-johnson: -0.017

Type of transformation of target values: none

Detected 1 GPU cores.

Training and testing in a CV fold of 10...	15s passed...	2025-03-08 19:23:03.045804

Training with CV group 1 out of 10, replicate 1 out of 5	15s passed...	2025-03-08 19:23:03.196559
Model: "functional"
┏━━━━━━━━━━━━━━━━━━━━━━━━━━━━━━━━━┳━━━━━━━━━━━━━━━━━━━━━━━━┳━━━━━━━━━━━━━━━┓
┃ Layer (type)                    ┃ Output Shape           ┃       Param # ┃
┡━━━━━━━━━━━━━━━━━━━━━━━━━━━━━━━━━╇━━━━━━━━━━━━━━━━━━━━━━━━╇━━━━━━━━━━━━━━━┩
│ input_layer (InputLayer)        │ (None, 2000, 5)        │             0 │
├─────────────────────────────────┼────────────────────────┼───────────────┤
│ conv1d (Conv1D)                 │ (None, 1996, 64)       │         1,664 │
├─────────────────────────────────┼────────────────────────┼───────────────┤
│ layer_normalization             │ (None, 1996, 64)       │           128 │
│ (LayerNormalization)            │                        │               │
├─────────────────────────────────┼────────────────────────┼───────────────┤
│ activation (Activation)         │ (None, 1996, 64)       │             0 │
├─────────────────────────────────┼────────────────────────┼───────────────┤
│ conv1d_1 (Conv1D)               │ (None, 1992, 64)       │        20,544 │
├─────────────────────────────────┼────────────────────────┼───────────────┤
│ layer_normalization_1           │ (None, 1992, 64)       │           128 │
│ (LayerNormalization)            │                        │               │
├─────────────────────────────────┼────────────────────────┼───────────────┤
│ activation_1 (Activation)       │ (None, 1992, 64)       │             0 │
├─────────────────────────────────┼────────────────────────┼───────────────┤
│ max_pooling1d (MaxPooling1D)    │ (None, 996, 64)        │             0 │
├─────────────────────────────────┼────────────────────────┼───────────────┤
│ dropout (Dropout)               │ (None, 996, 64)        │             0 │
├─────────────────────────────────┼────────────────────────┼───────────────┤
│ GRU_activate (GRU)              │ (None, 96)             │        46,656 │
├─────────────────────────────────┼────────────────────────┼───────────────┤
│ layer_normalization_2           │ (None, 96)             │           192 │
│ (LayerNormalization)            │                        │               │
├─────────────────────────────────┼────────────────────────┼───────────────┤
│ activation_2 (Activation)       │ (None, 96)             │             0 │
├─────────────────────────────────┼────────────────────────┼───────────────┤
│ dense (Dense)                   │ (None, 64)             │         6,208 │
├─────────────────────────────────┼────────────────────────┼───────────────┤
│ dropout_1 (Dropout)             │ (None, 64)             │             0 │
├─────────────────────────────────┼────────────────────────┼───────────────┤
│ batch_normalization             │ (None, 64)             │           256 │
│ (BatchNormalization)            │                        │               │
├─────────────────────────────────┼────────────────────────┼───────────────┤
│ activation_3 (Activation)       │ (None, 64)             │             0 │
├─────────────────────────────────┼────────────────────────┼───────────────┤
│ dense_1 (Dense)                 │ (None, 1)              │            65 │
└─────────────────────────────────┴────────────────────────┴───────────────┘
 Total params: 75,841 (296.25 KB)
 Trainable params: 75,713 (295.75 KB)
 Non-trainable params: 128 (512.00 B)

Return the best model...
R squared:  0.65 (Rp =  0.808, Rs =  0.803)


Training with CV group 1 out of 10, replicate 2 out of 5	97s passed...	2025-03-08 19:24:25.202569
Return the best model...
R squared:  0.64 (Rp =  0.798, Rs =  0.799)
…
