…
----------------------------------------------------------------------------------------------------

All groups will be used for validation monitoring after each epoch.

Training and testing in a CV fold of 10...	72s passed...	2025-03-19 10:40:33.028087

Training with CV group 1 out of 10, replicate 1 out of 5	72s passed...	2025-03-19 10:40:33.324611
Model: "functional"
┏━━━━━━━━━━━━━━━━━━━━━┳━━━━━━━━━━━━━━━━━━━┳━━━━━━━━━━━━┳━━━━━━━━━━━━━━━━━━━┓
┃ Layer (type)        ┃ Output Shape      ┃    Param # ┃ Connected to      ┃
┡━━━━━━━━━━━━━━━━━━━━━╇━━━━━━━━━━━━━━━━━━━╇━━━━━━━━━━━━╇━━━━━━━━━━━━━━━━━━━┩
│ data_input          │ (None, 2000, 5)   │          0 │ -                 │
│ (InputLayer)        │                   │            │                   │
├─────────────────────┼───────────────────┼────────────┼───────────────────┤
│ conv1d (Conv1D)     │ (None, 1996, 64)  │      1,664 │ data_input[0][0]  │
├─────────────────────┼───────────────────┼────────────┼───────────────────┤
│ layer_normalization │ (None, 1996, 64)  │        128 │ conv1d[0][0]      │
│ (LayerNormalizatio… │                   │            │                   │
├─────────────────────┼───────────────────┼────────────┼───────────────────┤
│ activation          │ (None, 1996, 64)  │          0 │ layer_normalizat… │
│ (Activation)        │                   │            │                   │
├─────────────────────┼───────────────────┼────────────┼───────────────────┤
│ conv1d_1 (Conv1D)   │ (None, 1992, 64)  │     20,544 │ activation[0][0]  │
├─────────────────────┼───────────────────┼────────────┼───────────────────┤
│ layer_normalizatio… │ (None, 1992, 64)  │        128 │ conv1d_1[0][0]    │
│ (LayerNormalizatio… │                   │            │                   │
├─────────────────────┼───────────────────┼────────────┼───────────────────┤
│ activation_1        │ (None, 1992, 64)  │          0 │ layer_normalizat… │
│ (Activation)        │                   │            │                   │
├─────────────────────┼───────────────────┼────────────┼───────────────────┤
│ max_pooling1d       │ (None, 996, 64)   │          0 │ activation_1[0][… │
│ (MaxPooling1D)      │                   │            │                   │
├─────────────────────┼───────────────────┼────────────┼───────────────────┤
│ dropout (Dropout)   │ (None, 996, 64)   │          0 │ max_pooling1d[0]… │
├─────────────────────┼───────────────────┼────────────┼───────────────────┤
│ conv1d_2 (Conv1D)   │ (None, 992, 64)   │     20,544 │ dropout[0][0]     │
├─────────────────────┼───────────────────┼────────────┼───────────────────┤
│ layer_normalizatio… │ (None, 992, 64)   │        128 │ conv1d_2[0][0]    │
│ (LayerNormalizatio… │                   │            │                   │
├─────────────────────┼───────────────────┼────────────┼───────────────────┤
│ activation_2        │ (None, 992, 64)   │          0 │ layer_normalizat… │
│ (Activation)        │                   │            │                   │
├─────────────────────┼───────────────────┼────────────┼───────────────────┤
│ max_pooling1d_1     │ (None, 496, 64)   │          0 │ activation_2[0][… │
│ (MaxPooling1D)      │                   │            │                   │
├─────────────────────┼───────────────────┼────────────┼───────────────────┤
│ dropout_1 (Dropout) │ (None, 496, 64)   │          0 │ max_pooling1d_1[… │
├─────────────────────┼───────────────────┼────────────┼───────────────────┤
│ GRU_activate (GRU)  │ (None, 128)       │     74,496 │ dropout_1[0][0]   │
├─────────────────────┼───────────────────┼────────────┼───────────────────┤
│ layer_normalizatio… │ (None, 128)       │        256 │ GRU_activate[0][… │
│ (LayerNormalizatio… │                   │            │                   │
├─────────────────────┼───────────────────┼────────────┼───────────────────┤
│ activation_3        │ (None, 128)       │          0 │ layer_normalizat… │
│ (Activation)        │                   │            │                   │
├─────────────────────┼───────────────────┼────────────┼───────────────────┤
│ dense (Dense)       │ (None, 128)       │     16,512 │ activation_3[0][… │
├─────────────────────┼───────────────────┼────────────┼───────────────────┤
│ dropout_dense       │ (None, 128)       │          0 │ dense[0][0]       │
│ (Dropout)           │                   │            │                   │
├─────────────────────┼───────────────────┼────────────┼───────────────────┤
│ batch_nor_dense     │ (None, 128)       │        512 │ dropout_dense[0]… │
│ (BatchNormalizatio… │                   │            │                   │
├─────────────────────┼───────────────────┼────────────┼───────────────────┤
│ activate_dense      │ (None, 128)       │          0 │ batch_nor_dense[… │
│ (Activation)        │                   │            │                   │
├─────────────────────┼───────────────────┼────────────┼───────────────────┤
│ output_list_0       │ (None, 1)         │        129 │ activate_dense[0… │
│ (Dense)             │                   │            │                   │
├─────────────────────┼───────────────────┼────────────┼───────────────────┤
│ output_list_1       │ (None, 1)         │        129 │ activate_dense[0… │
│ (Dense)             │                   │            │                   │
├─────────────────────┼───────────────────┼────────────┼───────────────────┤
│ output_list_2       │ (None, 1)         │        129 │ activate_dense[0… │
│ (Dense)             │                   │            │                   │
├─────────────────────┼───────────────────┼────────────┼───────────────────┤
│ group_input         │ (None, 1)         │          0 │ -                 │
│ (InputLayer)        │                   │            │                   │
├─────────────────────┼───────────────────┼────────────┼───────────────────┤
│ final_output        │ (None, 1)         │          0 │ output_list_0[0]… │
│ (CustomGatherLayer) │                   │            │ output_list_1[0]… │
│                     │                   │            │ output_list_2[0]… │
│                     │                   │            │ group_input[0][0] │
└─────────────────────┴───────────────────┴────────────┴───────────────────┘
 Total params: 135,299 (528.51 KB)
 Trainable params: 135,043 (527.51 KB)
…
